fp16_quantized_tflite_model.tflite (tflite, 205788 bytes, 4 tensors)

arith.constant1 f2 [10]
-0.05862 -0.0469 -0.02957 -0.12146 0.0478 0.0463 -0.04623 -0.06995
0.1737 0.03714
00000000: 81ab 01aa 92a7 c6af 1e2a ed29 eba9 7aac
00000010: 8f31 c128

arith.constant2 f2 [128]
-0.05582 0.012505 -0.03497 0.09064 -0.02876 0.0433 0.05362 -0.246
-0.0741 -0.00988 -0.03412 0.0847 0.01877 0.05328 -0.1544 -0.0907
0.11005 0.03247 0.0873 -0.00876 -0.1222 0.1356 -0.008224 0.1284
0.128 0.1134 0.08545 0.0657 0.143 0.0445 0.04398 0.0741
0.07544 0.1859 0.1597 -0.1329 0.1384 0.1714 0.0772 -0.02728
0.01464 0.2012 0.013275 0.0595 -0.03613 -0.0762 0.05832 -0.002245
-0.1941 0.02608 0.05713 -0.02563 0.05768 0.0901 -0.1437 0.156
-0.001795 0.02356 0.01415 0.06006 0.07007 0.0443 -0.0174 -0.04004
0.006638 -0.02396 -0.1082 -0.01004 0.1208 0.196 0.1493 -0.03958
-0.03342 -0.1414 -0.001986 0.1509 0.1997 0.0442 0.04257 -0.153
0.04776 0.0804 0.09735 -0.0703 0.03406 0.04202 0.1211 0.02773
0.02853 -0.02792 -0.008736 0.0895 0.009926 0.2086 0.0612 0.2607
0.04346 0.1819 -0.1266 -0.07056 -0.0662 0.11743 -0.02055 0.01634
-0.01591 -0.1082 0.01578 -0.003 0.05258 -0.003597 -0.07837 0.0448
-0.10223 0.05066 -0.01952 0.05002 0.05682 -0.0871 0.03009 -0.08075
-0.04834 -0.03598 -0.2214 -0.04092 -0.02618 0.0988 0.11224 0.0337
00000000: 25ab 6722 7aa8 cd2d 5da7 8b29 dd2a dfb3
00000010: beac 0fa1 5ea8 6c2d ce24 d22a f1b0 cead
00000020: 0b2f 2828 962d 7ca0 d2af 5730 36a0 1c30
00000030: 1930 422f 782d 342c 9330 b229 a129 be2c
00000040: d42c f331 1c31 41b0 6e30 7c31 f12c fca6
00000050: 7f23 7032 cc22 9e2b a0a8 e0ac 772b 9998
00000060: 36b2 ad26 502b 90a6 622b c42d 99b0 fe30
00000070: 5a97 0826 3f23 b02b 7c2c ac29 74a4 20a9
00000080: cc1e 22a6 edae 24a1 bb2f 4632 c730 11a9
00000090: 47a8 86b0 1198 d430 6432 a829 7329 e5b0
000000a0: 1d2a 252d 3b2e 80ac 5c28 6129 c02f 1927
000000b0: 4e27 26a7 79a0 ba2d 1521 ad32 d52b 2c34
000000c0: 9029 d231 0db0 84ac 3dac 842f 43a5 2f24
000000d0: 13a4 edae 0a24 259a bb2a 5e9b 04ad bc29
000000e0: 8bae 7c2a ffa4 672a 462b 93ad b427 2bad
000000f0: 30aa 9ba8 16b3 3da9 b4a6 532e 2f2f 5028

arith.constant3 f2 [128, 784]
-0.05832 0.0154 -0.06055 0.05865 -0.0775 0.01784 -0.0506 0.0417
0.02403 0.03772 -0.04944 0.0317 0.04016 0.02623 0.04398 0.0539
0.010185 -0.05798 0.05176 0.0595 -0.02184 -0.05847 0.02574 0.0511
-0.05536 -0.000588 0.01614 0.0161 0.0732 0.04703 -0.0349 -0.04404
0.038 -0.0403 0.0003498 0.02621 0.05246 -0.0457 -0.01732 0.0237
-0.0728 -0.01251 0.2463 0.1521 -0.04996 -0.006664 0.0552 0.1122
0.0534 0.0727 -0.01398 -0.01447 -0.0338 0.04095 -0.01628 -0.005478
0.02527 0.02776 -0.013794 0.0009713 0.01289 -0.01698 -0.0339 -0.02629
-0.003483 -0.1633 -0.1302 -0.126 0.02373 -0.05106 -0.0385 -0.007668
-0.0237 -0.0779 0.0708 0.1666 0.1517 0.09015 0.1489 0.05087
-0.0662 -0.005665 0.03778 -0.0624 0.0694 -0.03384 0.02374 -0.0468
0.0008783 0.09814 0.003674 0.0727 -0.01962 -0.01654 -0.04187 -0.168
-0.0794 -0.06146 -0.06305 -0.0436 -0.0733 0.05438 0.1458 0.06213
0.1385 0.07104 0.03607 0.0791 0.1172 -0.007183 0.1037 -0.05164
-0.03482 0.0024 0.00245 0.09625 0.03497 0.11536 0.0686 -0.06976
-0.1447 -0.1536 0.0526 -0.09955 0.0374 0.02412 -0.09326 -0.02982
-0.00812 -0.0671 -0.0331 -0.003809 0.09143 0.03366 0.05957 0.0777
0.1262 0.178 -0.00379 -0.02177 0.05872 -0.0797 0.0964 0.154
-0.02266 0.02216 -0.0745 -0.1396 -0.1809 -0.09656 -0.004105 -0.164
-0.03906 -0.0212 -0.05847 0.04086 0.1332 -0.010605 0.05353 0.0652
0.1466 0.02293 0.0435 0.03873 0.04553 0.0559 0.07434 0.01631
-0.03418 0.07764 -0.0733 -0.010056 0.02924 -0.07556 -0.1356 -0.2255
-0.1683 0.0007954 0.0474 -0.04022 0.03345 -0.02873 -0.05975 -0.0171
0.08624 -0.01063 0.02925 0.09644 0.0789 0.06964 0.03232 0.1514
0.1158 0.01544 -0.00648 -0.09827 0.06204 0.177 0.03595 -0.02103
0.0772 -0.0877 -0.2401 -0.1732 -0.1372 -0.03845 -0.02306 -0.1393
-0.0896 -0.02023 0.034 0.1312 0.007126 -0.04993 0.00596 -0.01484
0.12195 -0.01035 0.1348 0.1228 -0.001616 0.0534 -0.004784 0.00746
-0.05652 -0.01826 -0.05548 0.08185 0.03683 0.04666 -0.005203 -0.1597
-0.04544 -0.01804 -0.1456 -0.0999 -0.0633 0.08276 0.0751 0.04645
-0.01406 -0.04752 0.03119 -0.07947 0.002478 0.12213 0.2013 0.1654
0.03168 0.05096 -0.10596 0.04715 0.05414 -0.08386 -0.1095 0.1003
00000000: 77ab e323 c0ab 822b f6ac 9124 7aaa 5629
00000010: 2726 d428 54aa 0f28 2429 b726 a129 e62a
00000020: 3721 6cab a02a 9e2b 97a5 7cab 9726 8a2a
00000030: 16ab d190 2224 1f24 af2c 052a 78a8 a3a9
00000040: dd28 29a9 bb0d b626 b72a d9a9 6fa4 1126
00000050: a9ac 68a2 e233 de30 65aa d39e 112b 2e2f
00000060: d62a a72c 28a3 69a3 54a8 3e29 2ba4 9c9d
00000070: 7826 1b27 10a3 f513 9a22 59a4 57a8 bba6
00000080: 229b 3ab1 2bb0 08b0 1326 89aa eea8 da9f
00000090: 11a6 fcac 882c 5531 db30 c52d c430 832a
000000a0: 3dac cd9d d628 fdab 712c 55a8 1426 fea9
000000b0: 3213 482e 861b a72c 06a5 3ca4 5ca9 60b1
000000c0: 15ad deab 09ac 95a9 b1ac f62a aa30 f42b
000000d0: 6f30 8c2c 9e28 102d 802f 5b9f a32e 9caa
000000e0: 75a8 ea18 0519 292e 7a28 622f 642c 77ac
000000f0: a1b0 eab0 bc2a 5fae ca28 2d26 f8ad a2a7
00000100: 28a0 4bac 3da8 cd9b da2d 4f28 a02b f92c
00000110: 0a30 b231 c39b 93a5 842b 1aad 2b2e ee30
00000120: cda5 ac25 c5ac 78b0 cab1 2eae 349c 3fb1
00000130: 00a9 6da5 7cab 3b29 4330 6ea1 da2a 2c2c
00000140: b130 df25 9129 f528 d429 282b c22c 2d24
00000150: 60a8 f82c b1ac 26a1 7c27 d6ac 57b0 37b3
00000160: 63b1 8412 112a 26a9 4828 5ba7 a6ab 61a4
00000170: 852d 71a1 7d27 2c2e 0d2d 752c 2328 d830
00000180: 692f e823 a39e 4aae f12b aa31 9a28 62a5
00000190: f12c 9dad afb3 8bb1 64b0 eca8 e7a5 75b0
000001a0: bcad 2ea5 5a28 3330 4c1f 64aa 1a1e 99a3
000001b0: ce2f 4da1 5030 dc2f 9e96 d62a e69c a41f
000001c0: 3cab ada4 1aab 3d2d b728 f929 549d 1cb1
000001d0: d1a9 9ea4 a9b0 65ae 0dac 4c2d ce2c f229
000001e0: 33a3 15aa fc27 16ad 1319 d12f 7132 4b31
000001f0: 0e28 862a c8ae 092a ee2a 5ead 02af 6b2e

arith.constant4 f2 [10, 128]
-0.3433 0.2366 -0.2827 -0.0635 0.2426 0.1686 0.2576 0.2094
0.2593 0.1931 0.12396 -0.4692 -0.06805 0.04184 -0.1008 -0.3826
-0.3015 -0.006157 -0.06235 -0.7407 -0.12115 -0.4563 0.1387 0.08154
0.01422 -0.2812 -0.588 -0.09186 -0.1177 -0.039 -0.1222 -0.078
-0.328 -0.2228 -0.0904 0.1573 0.003515 0.308 0.08887 -0.1709
-0.594 0.2026 0.0661 -0.3135 0.3474 0.0427 -0.2651 0.08344
-0.2961 0.0654 -0.1174 0.2313 0.01665 -0.3113 0.1897 -0.575
0.349 -0.155 -0.1597 0.389 -0.2705 0.0402 -0.4788 -0.2217
-0.1643 0.1224 0.2727 -0.4692 -0.1151 0.2686 0.0431 0.284
-0.1123 0.1632 -0.5083 0.2527 -0.3923 -0.751 -0.1282 0.2673
-0.4097 0.2705 -0.5537 -0.1055 -0.0968 -0.5356 -0.595 0.02727
-0.5576 -0.688 -0.1349 0.1567 0.1547 -0.2024 0.1565 -0.3933
-0.4116 0.3567 -0.05536 0.2778 0.2695 -0.013695 -0.4238 -0.1059
-0.2426 0.0449 0.138 -0.01945 -0.1247 0.10565 -0.4343 0.153
-0.3418 0.1487 0.1279 -0.222 -0.2903 0.1898 -0.4016 -0.5684
0.2202 -0.08746 0.1009 0.176 0.08984 0.1737 0.3015 0.07764
0.1047 0.1298 0.2423 0.267 -0.2119 -0.3313 0.03085 0.0685
0.01666 -0.2517 -0.4097 -0.355 0.2075 -0.4976 -0.03943 0.0896
0.3008 0.10455 -0.2363 0.1338 0.1232 -0.1442 -0.4277 0.148
0.1752 0.01685 0.3718 0.1871 0.3906 0.07245 0.186 -0.262
0.2512 -0.03485 -0.2668 -0.3618 0.1554 0.1619 -0.4595 -0.2559
-0.2013 -0.472 0.1857 0.04672 0.06088 -0.1763 0.3506 -0.1713
0.0964 0.2161 0.4028 -0.3982 0.12366 -0.446 -0.2478 -0.18
0.09937 0.2559 0.0642 0.276 -0.2512 0.1553 -0.4006 0.02618
-0.5654 -0.3496 0.209 0.10333 0.1812 -0.2537 -0.337 0.02313
0.1108 -0.10266 0.293 -0.1954 0.2128 0.311 0.2128 -0.4268
0.05307 0.1584 0.1052 -0.3635 -0.4644 0.171 0.08453 -0.612
-0.0908 -0.094 0.606 0.05148 0.06204 0.1399 -0.382 0.2328
-0.314 0.549 0.1271 -0.0886 -0.6865 0.02678 0.1548 0.2212
0.098 0.03592 -0.1659 0.01206 -0.05832 -0.1987 0.12335 -0.3857
-0.269 0.4412 -0.4026 0.0214 -0.02293 -0.1586 0.1904 -0.179
0.2262 -0.2485 -0.4019 -0.601 -0.2788 -0.332 0.1846 -0.02238
00000000: 7eb5 9233 86b4 10ac c333 6531 1f34 b332
00000010: 2634 2e32 ef2f 82b7 5bac 5b29 74ae 1fb6
00000020: d3b4 4e9e fbab edb9 c1af 4db7 7030 382d
00000030: 4823 80b4 b4b8 e1ad 88af fea8 d2af feac
00000040: 3fb5 21b3 c9ad 0931 331b ee34 b02d 78b1
00000050: c1b8 7c32 3b2c 04b5 8f35 7729 3eb4 572d
00000060: bdb4 302c 83af 6733 4324 fbb4 1232 9ab8
00000070: 9635 f6b0 1cb1 3936 54b4 2529 a9b7 18b3
00000080: 42b1 d52f 5d34 82b7 5eaf 4c34 8429 8b34
00000090: 30af 3931 11b8 0b34 47b6 02ba 1ab0 4734
000000a0: 8eb6 5434 6eb8 c1ae 32ae 49b8 c3b8 fb26
000000b0: 76b8 81b9 51b0 0431 f330 7ab2 0231 4bb6
000000c0: 96b6 b535 16ab 7234 5034 03a3 c8b6 c7ae
000000d0: c3b3 bf29 6a30 fba4 fbaf c32e f3b6 e530
000000e0: 78b5 c230 1830 1bb3 a5b4 1332 6db6 8cb8
000000f0: 0c33 99ad 752e a231 c02d 8f31 d334 f82c
00000100: b32e 2730 c133 4634 c8b2 4db5 e627 622c
00000110: 4424 07b4 8eb6 aeb5 a432 f6b7 0ca9 bc2d
00000120: d034 b12e 90b3 4830 e32f 9db0 d8b6 bc30
00000130: 9b31 5024 f335 fd31 4036 a32c f431 31b4
00000140: 0534 76a8 45b4 cab5 f930 2e31 5ab7 18b4
00000150: 71b2 8db7 f131 fb29 cb2b a4b1 9c35 7bb1
00000160: 2b2e ea32 7236 5fb6 ea2f 23b7 eeb3 c3b1
00000170: 5c2e 1834 1c2c 6a34 05b4 f830 69b6 b426
00000180: 86b8 98b5 b032 9d2e cc31 0fb4 64b5 ec25
00000190: 172f 92ae b034 41b2 cf32 fa34 cf32 d4b6
000001a0: cb2a 1231 bc2e d1b5 6eb7 7931 692d e5b8
000001b0: d0ad 04ae d938 972a f12b 7a30 1db6 7333
000001c0: 06b5 6438 1130 acad 7eb9 db26 f430 1433
000001d0: 462e 9928 4fb1 2d22 77ab 5cb2 e52f 2cb6
000001e0: 4eb4 0f37 71b6 7a25 dfa5 13b1 1832 bab1
000001f0: 3d33 f4b3 6eb6 cfb8 76b4 50b5 e831 bba5
