quantized_tflite_model.tflite (tflite, 105656 bytes, 4 tensors)

arith.constant1 f4 [10]
-0.058620024 -0.04691839 -0.029573632 -0.12145698 0.047791358 0.04629528 -0.04622833 -0.06995034
0.17370073 0.037127834
00000000: 8d1b 70bd 7f2d 40bd 6744 f2bc 70be f8bd
00000010: dfc0 433d 1fa0 3d3d eb59 3dbd 2042 8fbd
00000020: 9bde 313e 5b13 183d

arith.constant2 f4 [128]
-0.05580395 0.012502656 -0.03497227 0.090653546 -0.028763194 0.043296434 0.053612776 -0.24593276
-0.0740856 -0.009877504 -0.034129545 0.084707566 0.018774359 0.053298198 -0.15445526 -0.09071127
0.11006479 0.032469522 0.08726784 -0.008756835 -0.12216452 0.1356543 -0.008226954 0.12841058
0.12799309 0.113397695 0.085429564 0.06566619 0.14290969 0.044494532 0.043974582 0.07409412
0.07542745 0.18590891 0.15962826 -0.13297404 0.13842024 0.1713637 0.07720198 -0.027284632
0.014637726 0.20113912 0.013271638 0.05950583 -0.036119394 -0.07619147 0.058311313 -0.0022457612
-0.19408505 0.026082652 0.057127215 -0.025632229 0.05768496 0.09008328 -0.14368612 0.15594931
-0.0017947777 0.023563402 0.014152863 0.06005503 0.070062906 0.044319563 -0.017389145 -0.04003766
0.006636214 -0.023958897 -0.10822242 -0.010039002 0.12079954 0.1960742 0.14923432 -0.039593585
-0.033421725 -0.14137585 -0.001985016 0.1508356 0.19968052 0.044199377 0.042572346 -0.15291496
0.047755186 0.08041375 0.097380266 -0.070340686 0.034049496 0.042025287 0.121102005 0.027729202
0.02853907 -0.0279275 -0.008734348 0.08947957 0.00992875 0.20860906 0.06117382 0.26071438
0.043448057 0.18189237 -0.12655304 -0.07055945 -0.066236205 0.11742197 -0.020557797 0.016336136
-0.015918925 -0.10823748 0.01577955 -0.0029996126 0.0525756 -0.0035975685 -0.078389615 0.044791967
-0.10220489 0.050671212 -0.019509533 0.050017234 0.05681649 -0.087125815 0.030095574 -0.08077693
-0.04833351 -0.035965726 -0.22146614 -0.04092262 -0.026187476 0.09882124 0.1122292 0.033690535
00000000: af92 64bd f1d7 4c3c 153f 0fbd 91a8 b93d
00000010: caa0 ebbc 9a57 313d 1299 5b3d ccd5 7bbe
00000020: 31ba 97bd 41d5 21bc 6ccb 0bbd 297b ad3d
00000030: afcc 993c 364f 5a3d 8529 1ebe d5c6 b9bd
00000040: a669 e13d c3fe 043d 7bb9 b23d d478 0fbc
00000050: 6431 fabd f6e8 0a3e 59ca 06bc 107e 033e
00000060: 9f10 033e 0d3d e83d b2f5 ae3d ff7b 863d
00000070: eb56 123e e63f 363d b11e 343d a8be 973d
00000080: b579 9a3d e85e 3e3e 9775 233e 592a 08be
00000090: 09be 0d3e f779 2f3e 121c 9e3d 0584 dfbc
000000a0: 13d3 6f3c 6af7 4d3e 4971 593c 63bc 733d
000000b0: eef1 13bd 460a 9cbd d8d7 6e3d 9f2d 13bb
000000c0: 3bbe 46be 49ab d53c 3afe 693d aefa d1bc
000000d0: 1147 6c3d 957d b83d 7422 13be 2db1 1f3e
000000e0: bf3e ebba 0908 c13c 69e1 673c 43fc 753d
000000f0: 247d 8f3d 6e88 353d ae73 8ebc 88fe 23bd
00000100: 9974 d93b 7345 c4bc b7a3 ddbd a07a 24bc
00000110: c065 f73d adc7 483e e2d0 183e e22c 22bd
00000120: 38e5 08bd d5c4 10be 0b17 02bb a674 1a3e
00000130: 0d79 4c3e 680a 353d 5760 2e3d bd95 1cbe
00000140: f19a 433d f7af a43d 4e6f c73d c70e 90bd
00000150: 7c77 0b3d b522 2c3d 5404 f83d 5a28 e33c
00000160: c5ca e93c 36c8 e4bc 831a 0fbc 1141 b73d
00000170: 32ac 223c 9d9d 553e 6691 7a3d 5b7c 853e
00000180: 97f6 313d fe41 3a3e 1f97 01be 7981 90bd
00000190: d9a6 87bd ee7a f03d d368 a8bc 5cd3 853c
000001a0: 6868 82bc 9dab ddbd 1d44 813c 2695 44bb
000001b0: 8359 573d 2fc5 6bbb bc8a a0bd c877 373d
000001c0: cc50 d1bd 9e8c 4f3d 75d2 9fbc dfde 4c3d
000001d0: 68b8 683d 056f b2bd fe8a f63c 606e a5bd
000001e0: 5cf9 45bd cc50 13bd 05c8 62be 7a9e 27bd
000001f0: 1e87 d6bc ca62 ca3d 6cd8 e53d 16ff 093d

tfl.pseudo_qconst i1 [10, 128]
-58 40 -48 -11 41 28 44 35
44 33 21 -79 -12 7 -17 -65
-51 -1 -11 -125 -20 -77 23 14
2 -48 -99 -16 -20 -7 -21 -13
-55 -38 -15 27 1 52 15 -29
-101 34 11 -53 59 7 -45 14
-50 11 -20 39 3 -53 32 -97
59 -26 -27 66 -46 7 -81 -37
-28 21 46 -79 -19 45 7 48
-19 28 -86 43 -66 -127 -22 45
-69 46 -94 -18 -16 -91 -101 5
-94 -116 -23 26 26 -34 26 -67
-70 60 -9 47 46 -2 -72 -18
-41 8 23 -3 -21 18 -73 26
-58 25 22 -38 -49 32 -68 -96
37 -15 17 30 15 29 51 13
19 24 45 49 -39 -61 6 13
3 -47 -76 -66 38 -92 -7 17
56 19 -44 25 23 -27 -79 27
32 3 69 35 72 13 34 -48
46 -6 -49 -67 29 30 -85 -47
-37 -87 34 9 11 -33 65 -32
18 40 75 -74 23 -82 -46 -33
18 47 12 51 -46 29 -74 5
-105 -65 39 19 34 -47 -62 4
20 -19 54 -36 39 58 39 -79
10 29 19 -67 -86 32 16 -113
-17 -17 112 10 11 26 -71 43
-58 102 24 -16 -127 5 29 41
18 7 -31 2 -11 -37 23 -71
-50 82 -74 4 -4 -29 35 -33
42 -46 -74 -111 -52 -61 34 -4
00000000: c628 d0f5 291c 2c23 2c21 15b1 f407 efbf
00000010: cdff f583 ecb3 170e 02d0 9df0 ecf9 ebf3
00000020: c9da f11b 0134 0fe3 9b22 0bcb 3b07 d30e
00000030: ce0b ec27 03cb 209f 3be6 e542 d207 afdb
00000040: e415 2eb1 ed2d 0730 ed1c aa2b be81 ea2d
00000050: bb2e a2ee f0a5 9b05 a28c e91a 1ade 1abd
00000060: ba3c f72f 2efe b8ee d708 17fd eb12 b71a
00000070: c619 16da cf20 bca0 25f1 111e 0f1d 330d
00000080: 1318 2d31 d9c3 060d 03d1 b4be 26a4 f911
00000090: 3813 d419 17e5 b11b 2003 4523 480d 22d0
000000a0: 2efa cfbd 1d1e abd1 dba9 2209 0bdf 41e0
000000b0: 1228 4bb6 17ae d2df 122f 0c33 d21d b605
000000c0: 97bf 2713 22d1 c204 14ed 36dc 273a 27b1
000000d0: 0a1d 13bd aa20 108f efef 700a 0b1a b92b
000000e0: c666 18f0 8105 1d29 1207 e102 f5db 17b9
000000f0: ce52 b604 fce3 23df 2ad2 b691 ccc3 22fc

tfl.pseudo_qconst1 i1 [128, 784]
-21 6 -22 21 -28 6 -18 15
9 14 -18 11 15 9 16 20
4 -21 19 22 -8 -21 9 18
-20 0 6 6 26 17 -13 -16
14 -15 0 9 19 -17 -6 9
-26 -5 89 55 -18 -2 20 41
19 26 -5 -5 -12 15 -6 -2
9 10 -5 0 5 -6 -12 -10
-1 -59 -47 -46 9 -18 -14 -3
-9 -28 26 60 55 33 54 18
-24 -2 14 -23 25 -12 9 -17
0 36 1 26 -7 -6 -15 -61
-29 -22 -23 -16 -27 20 53 22
50 26 13 29 42 -3 38 -19
-13 1 1 35 13 42 25 -25
-52 -56 19 -36 14 9 -34 -11
-3 -24 -12 -1 33 12 22 28
46 64 -1 -8 21 -29 35 56
-8 8 -27 -51 -66 -35 -1 -59
-14 -8 -21 15 48 -4 19 24
53 8 16 14 16 20 27 6
-12 28 -27 -4 11 -27 -49 -82
-61 0 17 -15 12 -10 -22 -6
31 -4 11 35 29 25 12 55
42 6 -2 -36 22 64 13 -8
28 -32 -87 -63 -50 -14 -8 -50
-32 -7 12 47 3 -18 2 -5
44 -4 49 44 -1 19 -2 3
-20 -7 -20 30 13 17 -2 -58
-16 -7 -53 -36 -23 30 27 17
-5 -17 11 -29 1 44 73 60
11 18 -38 17 20 -30 -40 36
00000000: eb06 ea15 e406 ee0f 090e ee0b 0f09 1014
00000010: 04eb 1316 f8eb 0912 ec00 0606 1a11 f3f0
00000020: 0ef1 0009 13ef fa09 e6fb 5937 eefe 1429
00000030: 131a fbfb f40f fafe 090a fb00 05fa f4f6
00000040: ffc5 d1d2 09ee f2fd f7e4 1a3c 3721 3612
00000050: e8fe 0ee9 19f4 09ef 0024 011a f9fa f1c3
00000060: e3ea e9f0 e514 3516 321a 0d1d 2afd 26ed
00000070: f301 0123 0d2a 19e7 ccc8 13dc 0e09 def5
00000080: fde8 f4ff 210c 161c 2e40 fff8 15e3 2338
00000090: f808 e5cd bedd ffc5 f2f8 eb0f 30fc 1318
000000a0: 3508 100e 1014 1b06 f41c e5fc 0be5 cfae
000000b0: c300 11f1 0cf6 eafa 1ffc 0b23 1d19 0c37
000000c0: 2a06 fedc 1640 0df8 1ce0 a9c1 cef2 f8ce
000000d0: e0f9 0c2f 03ee 02fb 2cfc 312c ff13 fe03
000000e0: ecf9 ec1e 0d11 fec6 f0f9 cbdc e91e 1b11
000000f0: fbef 0be3 012c 493c 0b12 da11 14e2 d824
